Snake_AI_Pytorch/model/model.pth (torch, 17216 bytes, 4 tensors)

linear1.weight f4 [256, 11]
-0.052865166 -0.51649266 -0.0019862803 0.31949794 0.23036005 -0.22228217 0.17083494 0.11312202
-0.5227809 -0.3295366 -0.043502502 -0.35310224 -0.22761182 0.5241199 -0.2076417 0.11044903
-0.3866306 0.14728802 0.2354909 -0.057976365 -0.29399654 0.15727897 -0.0006063261 0.27475697
0.5159592 0.12338136 -0.050837513 0.3066865 -0.2055842 0.09390992 0.18948652 -0.3885973
0.11611899 -0.094964586 -0.18306005 0.209071 0.10164629 -0.29373825 -0.06570297 0.17722966
-0.10605663 -0.18224958 -0.037737217 -0.2910461 0.044852745 -0.090763934 0.10524544 0.43942142
-0.060733553 -0.047194757 -0.28577667 -0.36730298 -0.8265472 0.113157704 0.42061162 0.21386912
0.41673136 0.0917957 -0.11059185 -0.32287216 -0.035594475 -0.29842198 0.14402145 0.38079187
-0.06277018 0.3018735 0.54225284 -0.48192218 0.5032888 0.108821325 -0.08087298 0.1662603
-0.09171746 0.053072736 0.24766317 0.10976804 0.042044874 0.1674325 -0.07163905 -0.07725654
0.030533671 -0.098423846 -0.03944193 -0.19344649 -0.024166064 -0.14453453 0.12449184 -0.06676421
0.028588448 -0.018066546 -0.46073794 -0.1434714 0.029542435 0.4183382 0.20912142 0.3234791
0.17075054 -0.2499744 -0.018903425 -0.38886723 0.48695365 0.23323005 -0.25600645 0.09637854
0.06473084 -0.09218927 0.21268609 0.020973807 0.20969722 -0.053098436 0.34602395 -0.044327863
0.027752157 -0.37537277 0.6090248 0.052654784 0.28284624 0.3579702 -0.66566384 -0.030228881
-0.18644902 0.06536091 -0.25540307 -0.24385068 -0.46281844 0.56816566 -0.45670834 -0.08063482
-0.60251516 0.43503955 -0.18102254 -0.27548274 0.5589729 -0.35949203 -0.19831567 0.025485098
0.12507705 -0.15038343 0.16157803 -0.25782654 -0.40225112 -0.09271638 -0.47238657 0.23519096
-0.2141239 0.0048605003 -0.015322702 0.036090802 0.3065118 0.15660799 0.07560223 0.06551943
-0.27333018 -0.19067968 -0.007354185 0.30592972 -0.04861714 -0.02800775 -0.057447232 -0.15464172
0.1295351 0.08907169 -0.21885034 0.13866243 -0.29446968 0.371581 0.109627195 0.07940141
-0.16417305 -0.08106903 0.026872106 -0.1841074 0.44346896 0.20190024 0.08344776 0.3211517
0.18427856 0.20294377 -0.6958002 0.06326841 -0.48973396 0.13739511 -0.06527464 0.18841293
0.5363212 -0.03952318 0.18423265 0.2782214 -0.49168596 0.117603794 0.16611382 -0.060034003
0.050340597 -0.47298232 -0.15756844 0.20767552 0.025564903 0.10015863 -0.20957512 0.5904761
-0.17084391 0.10476271 -0.36349368 -0.32416004 -0.034951687 -0.057473365 0.31130806 -0.14609478
-0.02417788 0.2480112 0.1422127 -0.019315511 -0.28897327 -0.26157448 -0.29057118 -0.31349248
0.4228156 0.33362454 0.37625104 0.34737432 -0.12612414 0.42159882 -0.15433785 -0.50291824
-0.12485117 0.09807703 0.17428234 -0.20536047 -0.35000667 0.12568212 -0.15666166 0.010468107
-0.29150772 -0.061700217 -0.43539333 0.08237154 -0.548856 0.38906196 -0.6709253 -0.31422472
-0.38655078 0.56029135 -0.18139127 -0.28334123 0.25478178 -0.149702 0.4820305 0.049983192
-0.17519262 -0.048621528 -0.11488877 -0.21675456 0.3927509 -0.03540751 -0.021359343 0.25362653
00000000: 2589 58bd dd38 04bf 412c 02bb 3c95 a33e
00000010: 81e3 6b3e f09d 63be 5bef 2e3e 85ac e73d
00000020: f8d4 05bf 05b9 a8be ae2f 32bd d1c9 b4be
00000030: 1313 69be b92c 063f 07a0 54be 1a33 e23d
00000040: 72f4 c5be acd2 163e 8724 713e a078 6dbd
00000050: b786 96be bd0d 213e dbf1 1eba f2ac 8c3e
00000060: e715 043f 5eaf fc3d ff3a 50bd 0306 9d3e
00000070: aa84 52be d853 c03d c108 423e 3af6 c6be
00000080: cbcf ed3d cb7c c2bd 1874 3bbe b516 563e
00000090: ee2b d03d dc64 96be 478f 86bd b17b 353e
000000a0: 3834 d9bd a29f 3abe 5792 1abd ff03 95be
000000b0: 83b7 373d 71e2 b9bd ec8a d73d d8fb e03e
000000c0: bfc3 78bd 4a4f 41bd 5251 92be 230f bcbe
000000d0: 9998 53bf 3abf e73d 685a d73e 8200 5b3e
000000e0: d05d d53e 62ff bb3d fb7d e2bd 804f a5be
000000f0: 83cb 11bd c4ca 98be 5c7a 133e 27f7 c23e
00000100: a78d 80bd 2a8f 9a3e 15d1 0a3f 81be f6be
00000110: 89d7 003f b7dd de3d bca0 a5bd 2440 2a3e
00000120: 5dd6 bbbd cc62 593d 6a9b 7d3e 11ce e03d
00000130: 3f37 2c3d 6d73 2b3e 7fb7 92bd ad38 9ebd
00000140: c021 fa3c 7192 c9bd dc8d 21bd d616 46be
00000150: e9f7 c5bc dc00 14be 94f5 fe3d adbb 88bd
00000160: 5232 ea3c 4b00 94bc d8e5 ebbe 2bea 12be
00000170: fa02 f23c 6d30 d63e ed23 563e 0d9f a53e
00000180: 3bd9 2e3e 4af9 7fbe 5bdb 9abc 9b19 c7be
00000190: fd51 f93e dcd3 6e3e 4713 83be 1d62 c53d
000001a0: 9a91 843d bacd bcbd 62ca 593e 43d1 ab3c
000001b0: deba 563e bf7d 59bd 0d2a b13e 2291 35bd
000001c0: 7e58 e33c dc30 c0be 0de9 1b3f 8bac 573d
000001d0: 39d1 903e df47 b73e f268 2abf 8fa2 f7bc
000001e0: 7eec 3ebe f1db 853d 31c4 82be feb3 79be
000001f0: 8af6 ecbe 4e73 113f add5 e9be de23 a5bd
00000200: 6f3e 1abf 81bd de3e f95d 39be 130c 8dbe
00000210: d918 0f3f 570f b8be 4313 4bbe 20c6 d03c
00000220: 3314 003e 1dfe 19be b674 253e d701 84be
00000230: dcf3 cdbe 16e2 bdbd a7dc f1be e6d5 703e
00000240: 4c43 5bbe d544 9f3b 120c 7bbc f3d3 133d
00000250: 1def 9c3e d85d 203e 58d5 9a3d 0d2f 863d
00000260: eff1 8bbe 8941 43be 60fb f0bb d2a2 9c3e
00000270: c422 47bd 8270 e5bc ca4d 6bbd 665a 1ebe
00000280: d9a4 043e 386b b63d 4e1a 60be 86fd 0d3e
00000290: bbc4 96be dd3f be3e 3984 e03d 359d a23d
000002a0: fb1c 28be 8507 a6bd e422 dc3c a686 3cbe
000002b0: 5d0e e33e f0be 4e3e a9e6 aa3d ff6d a43e
000002c0: 85b3 3c3e 7ed0 4f3e f61f 32bf de92 813d
000002d0: 69be fabe 4eb1 0c3e b6ae 85bd 52ef 403e
000002e0: 594c 093f 0fe3 21bd 7ca7 3c3e 0973 8e3e
000002f0: 43be fbbe 42da f03d be19 2a3e 37e6 75bd
00000300: f131 4e3d bd2a f2be 9f59 21be e4a8 543e
00000310: 7d6d d13c f81f cd3d dc9a 56be 7129 173f
00000320: b5f1 2ebe d58d d63d d81b babe 4ef8 a5be
00000330: 8029 0fbd 3169 6bbd c563 9f3e df99 15be
00000340: b010 c6bc a6f6 7d3e 35a0 113e 903b 9ebc
00000350: 4ef4 93be 17ed 85be bfc5 94be 1682 a0be
00000360: 497b d83e d6d0 aa3e faa3 c03e 0cdb b13e
00000370: b026 01be cddb d73e be0a 1ebe 40bf 00bf
00000380: f8b1 ffbd 9cdc c83d 1277 323e 044a 52be
00000390: 1334 b3be d0b2 003e ea6b 20be 6c82 2b3c
000003a0: 8040 95be 5eb9 7cbd e0eb debe 69b2 a83d
000003b0: d481 0cbf 2133 c73e c3c1 2bbf 10e2 a0be
000003c0: fce9 c5be 416f 0f3f a2be 39be 1a12 91be
000003d0: c272 823e 7b4b 19be b4cc f63e 2dbb 4c3d
000003e0: b265 33be 5e27 47bd ce4a ebbd e8f4 5dbe
000003f0: a516 c93e 7707 11bd caf9 aebc 56db 813e

linear1.bias f4 [256]
0.2707451 0.17446963 -0.18538295 -0.3498039 -0.1360903 -0.045613967 -0.30378133 -0.32632965
-0.19743499 -0.11965372 -0.0645891 -0.039960008 0.2554593 -0.058122866 -0.17117208 -0.27271342
-0.155202 -0.0101065105 0.026536664 -0.14417312 0.17570989 -0.01713138 -0.29056963 -0.21868357
0.20203662 -0.2627631 -0.32730222 -0.37894365 -0.1000932 0.006796381 -0.053937785 0.24160513
-0.23379344 -0.011521587 0.043081407 0.17940372 0.38232952 0.11706738 0.0045771576 0.18826088
-0.18617576 0.05573375 -0.15274583 -0.16420299 0.24874504 -0.02053334 -0.14931117 0.33854368
0.13810606 -0.22929482 -0.23974171 -0.15551883 -0.32585725 -0.18051401 -0.11064023 -0.20074536
-0.028456734 0.026659008 0.1908251 -0.106939614 0.14177981 -0.24089083 -0.017907482 -0.13423723
-0.08151447 -0.2567634 0.20125037 -0.17281443 -0.2980429 0.07975952 -0.14138219 -0.23983723
-0.0817614 0.31674087 -0.0427771 0.24376242 -0.1504821 -0.15488648 -0.082327805 -0.25658068
-0.19724432 0.19510804 0.00857038 0.29492018 -0.22442134 -0.22413634 -0.3695341 -0.057678506
-0.16142455 -0.11556028 -0.09805536 0.1623032 -0.239622 -0.0062671057 -0.100092 -0.24737018
0.0022791494 -0.1367118 -0.06317328 -0.455076 -0.26529402 0.087169 -0.17342493 -0.27595228
-0.24536538 -0.13488272 0.13356902 -0.15325281 -0.052099336 0.08308385 -0.031662684 0.31897458
-0.27246553 0.29127157 -0.20961101 -0.26077113 0.16713212 -0.047756843 -0.01509192 -0.28235036
-0.25504074 0.099469826 -0.2409265 -0.2296062 -0.16010155 0.014809983 0.08870502 -0.13178463
-0.36605862 0.21593316 -0.012996314 -0.04871896 -0.21586621 0.07781357 -0.2436088 0.13260898
-0.14539517 0.0550454 -0.29415485 -0.02823146 -0.06348378 0.0385157 -0.37519953 -0.18400691
-0.18268175 0.037733346 0.03599413 0.18192656 -0.3030917 0.24666794 0.1182865 -0.027647603
0.20976667 0.43351874 0.00776803 -0.036083855 -0.04673112 0.023242159 -0.21370189 0.0705339
0.38003632 -0.055516083 0.32213005 0.15405361 -0.13350855 -0.0008441237 -0.1232617 0.046190638
0.2557783 -0.35330406 -0.34025508 0.2042675 0.052050613 -0.16644405 0.014371591 1.1400521
-0.3113112 -0.18081047 -0.22737095 -0.4436123 0.44861016 -0.009982646 0.4299114 -0.2939018
-0.05437813 0.19186035 -0.20954138 -0.04665831 -0.22965734 -0.013385511 0.07723371 -0.16689636
-0.17949025 -0.15766689 -0.06171621 -0.13024023 -0.05855027 0.04125 0.52414805 -0.1012902
-0.14393479 0.006658622 -0.08770272 -0.0015149945 -0.3285101 0.19151376 -0.061059043 -0.15551665
-0.25165427 0.040396918 0.086867325 0.1341151 -0.2548388 0.13341986 -0.34819874 -0.0014367279
0.0015146565 0.20405097 -0.03397199 0.32508498 0.19623992 -0.1115815 -0.23054661 -0.08689966
0.0074872607 -0.03336595 0.020916622 0.026823971 0.4138302 0.25206032 0.18241034 0.09323468
-0.22246067 0.10523089 -0.09234321 0.16269732 -0.19906761 0.17088649 -0.07386978 0.22620223
0.34738037 -0.21422385 0.1772181 0.10670624 0.15341815 -0.042857617 0.039600845 -0.42823815
0.3284057 -0.0006491358 -0.21908829 -0.31783533 -0.10525652 0.52840185 0.29462966 -0.17739269
00000000: 1a9f 8a3e 2ba8 323e 07d5 3dbe 7f19 b3be
00000010: 415b 0bbe b6d5 3abd 3a89 9bbe ae14 a7be
00000020: 662c 4abe 020d f5bd 4a47 84bd 1bad 23bd
00000030: 90cb 823e 3e12 6ebd bc47 2fbe 18a1 8bbe
00000040: 46ed 1ebe c795 25bc 6b63 d93c 1ea2 13be
00000050: 4bed 333e 1c57 8cbc 8bc5 94be 96ee 5fbe
00000060: b0e2 4e3e e388 86be 2894 a7be e704 c2be
00000070: aafd ccbd 2db4 de3b deed 5cbd 5667 773e
00000080: 8c67 6fbe 0ac5 3cbc 2176 303d 9cb5 373e
00000090: b2c0 c33e 06c1 ef3d fbfb 953b 76c7 403e
000000a0: dca4 3ebe 1349 643d 6769 1cbe d424 28be
000000b0: 05b7 7e3e 8935 a8bc 07e5 18be 9955 ad3e
000000c0: ad6b 0d3e 43cc 6abe da7e 75be 5440 1fbe
000000d0: c3d6 a6be aad8 38be 5897 e2bd 3190 4dbe
000000e0: 191e e9bc fe63 da3c a867 433e 2803 dbbd
000000f0: ba2e 113e 16ac 76be b6b2 92bc 7c75 09be
00000100: 0ff1 a6bd 7e76 83be 9414 4e3e 44f6 30be
00000110: 1499 98be f658 a33d 7ec6 10be e497 75be
00000120: 8572 a7bd dc2b a23e 0a37 2fbd db9c 793e
00000130: fb17 1abe 909a 1ebe 7b9b a8bd 8b5e 83be
00000140: 6afa 49be 67ca 473e c76a 0c3c c7ff 963e
00000150: b5ce 65be ff83 65be 9333 bdbe 4c40 6cbd
00000160: 7a4c 25be deaa ecbd 40d1 c8bd cf32 263e
00000170: 785f 75be 4b5c cdbb 09fd ccbd 9c4e 7dbe
00000180: c85d 153b 2efe 0bbe fe60 81bd b9ff e8be
00000190: 9ed4 87be a985 b23d 4e96 31be 9e49 8dbe
000001a0: 1041 7bbe b21e 0abe 51c6 083e 4eee 1cbe
000001b0: 1d66 55bd de27 aa3d bbb0 01bd a350 a33e
000001c0: 9a80 8bbe 8c21 953e 45a4 56be cb83 85be
000001d0: af24 2b3e ae9c 43bd 1a44 77bc 3a90 90be
000001e0: b394 82be d6b6 cb3d 70b5 76be e31d 6bbe
000001f0: a9f1 23be 92a5 723c faaa b53d 8df2 06be
00000200: 096c bbbe 951d 5d3e 7eee 54bc 888d 47bd
00000210: 080c 5dbe b95c 9f3d 9674 79be a6ca 073e
00000220: 79e2 14be 4977 613d 779b 96be aa45 e7bc
00000230: c903 82bd a3c2 1d3d 271a c0be 4f6c 3cbe
00000240: ed10 3bbe 488e 1a3d 956e 133d f54a 3a3e
00000250: d62e 9bbe 8596 7c3e 3140 f23d 3a7d e2bc
00000260: 13cd 563e 2bf6 dd3e f58a fe3b aacc 13bd
00000270: 2269 3fbd 5766 be3c abd4 5abe 1474 903d
00000280: 1f94 c23e d564 63bd 3bee a43e 3bc0 1d3e
00000290: 77b6 08be 2f48 5dba a170 fcbd 6532 3d3d
000002a0: 60f5 823e 45e4 b4be ea35 aebe 802b 513e
000002b0: 0633 553d 4f70 2abe d276 6b3c 3aed 913f
000002c0: 2e64 9fbe 6126 39be eed3 68be 2721 e3be
000002d0: 3bb0 e53e 418e 23bc 591d dc3e 4c7a 96be
000002e0: 9abb 5ebd 0a77 443e 0492 56be c91c 3fbd
000002f0: 4b2b 6bbe e74e 5bbc b52c 9e3d e1e6 2abe
00000300: 4bcc 37be 6e73 21be 23ca 7cbd b25d 05be
00000310: 68d2 6fbd c3f5 283d 912e 063f 3d71 cfbd
00000320: a463 13be 9230 da3b 7c9d b3bd c892 c6ba
00000330: 7a32 a8be 2f1c 443e 0c19 7abd c23f 1fbe
00000340: d4d8 80be 3d77 253d 7fe7 b13d 7855 093e
00000350: 3b7a 82be 379f 083e 1b47 b2be 9750 bcba
00000360: 7087 c63a bdf2 503e 3726 0bbd 8a71 a63e
00000370: 1ef3 483e d784 e4bd 6914 6cbe 73f8 b1bd
00000380: b257 f53b bcaa 08bd 5659 ab3c f2bd db3c
00000390: 8de1 d33e 0d0e 813e c7c9 3a3e d3f1 be3d
000003a0: bbcc 63be 4b83 d73d 701e bdbd 209a 263e
000003b0: 61d8 4bbe defc 2e3e 0a49 97bd 8fa1 673e
000003c0: d7db b13e 7f5d 5bbe a978 353e cd88 da3d
000003d0: a619 1d3e 788b 2fbd 7f34 223d 0842 dbbe
000003e0: cb24 a83e c42a 2aba ae58 60be 50bb a2be
000003f0: bb90 d7bd 5845 073f b3d9 963e 6ea6 35be

linear2.weight f4 [3, 256]
0.107333176 0.21257493 -0.067285955 -0.03653783 -0.6237352 -0.10851789 -0.13785149 -0.012683295
-0.23467992 0.010490009 -0.31623128 0.44343418 -0.18177566 0.0011594355 -0.112434514 -0.23292279
-0.35676944 0.0020433478 -0.030270403 -0.24375212 0.1256546 0.5683217 0.014851934 -0.14771692
0.07061268 -0.25608248 -0.09555688 -0.033549007 0.37320703 -0.02296695 -0.0495673 0.45229378
0.3032791 0.3132303 0.46254027 0.02065332 0.42083532 0.12749422 -0.20622082 -0.19118536
-0.22591807 -0.06252758 -0.0055911695 -0.5814082 0.31781474 -0.49486706 -0.062297206 0.24323732
0.06973848 0.004765844 -0.050029725 -0.11958272 -0.15460847 -0.017768601 -0.12600549 -0.064006224
-0.081356466 0.2602248 0.17101017 -0.4495252 0.12703018 0.23930684 -0.04920081 -0.3847237
-0.34172648 -0.105828896 0.33169475 -0.17066745 -0.017741494 0.03838411 -0.015685795 -0.11427823
-0.0809848 0.18555404 -0.19046733 0.036179412 -0.0027917286 -0.14368713 0.22792426 -0.2853375
-0.29525554 0.22949146 -0.45301315 0.14410849 -0.2611225 -0.007749176 -0.17726538 -0.22571559
-0.1471269 -0.15585525 -0.0024931119 0.24470277 -0.56021005 0.2623986 -0.46272883 -0.35178134
-0.4807357 -0.09625539 0.0026529885 -0.06402205 -0.4677104 0.17930825 -0.10988326 0.20180942
-0.24878241 -0.22307344 -0.024963006 -0.73596656 -0.060781293 0.23500767 0.39926127 0.38694125
0.1650364 0.12820372 0.03497107 -0.07467139 0.0069592884 -0.30866203 0.45425057 -0.063380145
-0.108971104 0.1434683 0.16095848 -0.16019836 -0.08349518 0.033189267 0.15079038 0.023312263
0.0139093315 -0.03346066 0.42542684 -0.07634537 -0.1813088 -0.3760062 -0.21206824 0.24131525
-0.45200288 -0.21814527 0.041743703 0.010083506 -0.53338057 0.059259783 -0.24661377 0.31274486
-0.062151607 -0.034548227 -0.010881629 -0.0025997635 -0.37290314 0.3204186 -0.045423966 0.21350189
0.33223855 0.22910008 0.37701234 -0.0500353 -0.16895309 0.0049612215 -0.12400599 -0.23313959
0.29391074 -0.11012325 0.49463376 0.5074566 -0.4377604 -0.13743064 -0.32062516 -0.01680954
0.4667344 -0.37946072 -0.17605214 0.3763582 0.36840403 -0.15498944 0.21696 0.31275547
-0.01139562 -0.23198913 -0.1459879 -0.037329 0.2859532 0.23423612 0.13091202 -0.24522156
-0.21792616 0.13767685 0.037836358 -0.42214167 0.30962205 0.054585807 0.12197425 0.21947601
-0.018642006 -0.07652179 -0.065526016 0.39815158 -0.1778116 -0.54735196 0.3909652 -0.014846408
-0.123943076 0.07117928 -0.19545014 0.06743033 -0.29447606 -0.20474935 -0.07245763 -0.025535256
-0.29940814 0.08426891 0.013211876 0.03914403 -0.20110017 0.047587343 -0.20602831 -0.11333893
0.0059907655 0.19179417 0.1360696 0.15919732 -0.16439775 -0.29911014 -0.19053328 0.3380004
0.20589957 -0.10499704 0.107508264 0.105083965 0.52817947 0.30402362 0.5342525 -0.16778728
-0.15439698 0.37744823 -0.3160085 -0.56426674 -0.04503625 0.4426055 0.45861998 0.07200168
0.252666 -0.111268096 0.47896087 -0.33215842 0.47278902 -0.1884482 0.02471728 -0.08551804
0.12076484 -0.29753003 0.0006877578 -0.14719903 -0.1694258 0.43557683 0.13569367 0.001220175
00000000: 7fd1 db3d 3ead 593e 38cd 89bd b1a8 15bd
00000010: 1cad 1fbf a13e debd f128 0dbe 98cd 4fbc
00000020: ef4f 70be 49de 2b3c 11e9 a1be ce09 e33e
00000030: 6623 3abe 33f8 973a 1144 e6bd 5083 6ebe
00000040: 7caa b6be b0e9 053b a3f9 f7bc 289a 79be
00000050: 99ab 003e 887d 113f 8755 733c 1b43 17be
00000060: 619d 903d 3e1d 83be 53b3 c3bd af6a 09bd
00000070: fe14 bf3e 2f25 bcbc 1507 4bbd 0d93 e73e
00000080: 6647 9b3e b95f a03e 14d2 ec3e 2731 a93c
00000090: ba77 d73e d88d 023e 8d2b 53be 18c6 43be
000000a0: 1157 67be 760e 80bd 2136 b7bb 2bd7 14bf
000000b0: 9db8 a23e 375f fdbe 5b2b 7fbd 3413 793e
000000c0: 0cd3 8e3d cc2a 9c3b f8eb 4cbd c9e7 f4bd
000000d0: af51 1ebe 758f 91bc 9507 01be b215 83bd
000000e0: 389e a6bd 2f3c 853e 4a1d 2f3e 2b28 e6be
000000f0: 3314 023e da0c 753e ca86 49bd 81fa c4be
00000100: c6f6 aebe d2bc d8bd e5d3 a93e 73c3 2ebe
00000110: 9c56 91bc a838 1d3d 7f7f 80bc b40a eabd
00000120: 5cdb a5bd e101 3e3e de09 43be dd30 143d
00000130: 6ff5 36bb b822 13be fa64 693e c217 92be
00000140: bc2b 97be cfff 6a3e 57f1 e7be 2d91 133e
00000150: d9b1 85be cdec fdbb 0e85 35be fd21 67be
00000160: 6fa8 16be 8598 1fbe 7a63 23bb 5d93 7a3e
00000170: ed69 0fbf 1c59 863e cbea ecbe af1c b4be
00000180: fd22 f6be 8c21 c5bd c3dd 2d3b fe1d 83bd
00000190: bd77 efbe 959c 373e 7a0a e1bd 21a7 4e3e
000001a0: d1c0 7ebe 5d6d 64be 387f ccbc 4e68 3cbf
000001b0: cef5 78bd daa5 703e f96b cc3e 2a1d c63e
000001c0: 4dff 283e d647 033e d33d 0f3d 50ed 98bd
000001d0: be0a e43b f308 9ebe 8893 e83e 73cd 81bd
000001e0: 3e2c dfbd 5be9 123e 4dd2 243e 0a0b 24be
000001f0: 85ff aabd 78f1 073d cb68 1a3e 5cf9 be3c
00000200: f7e3 633c 0c0e 09bd 8cd1 d93e f65a 9cbd
00000210: 04a9 39be e283 c0be 6b28 59be 581b 773e
00000220: ec6c e7be 7961 5fbe 72fb 2a3d 4a35 253c
00000230: a18b 08bf 63ba 723d 5288 7cbe 1820 a03e
00000240: af92 7ebd 7182 0dbd dc48 32bc cb60 2abb
00000250: 29ed bebe e80d a43e 7b0e 3abd 3da0 5a3e
00000260: 2c1b aa3e 3699 6a3e c307 c13e d1f1 4cbd
00000270: 0a02 2dbe be91 a23b daf6 fdbd 25bc 6ebe
00000280: 787b 963e 4c88 e1bd a340 fd3e ade8 013f
00000290: 2222 e0be 9eba 0cbe fb28 a4be 29b4 89bc
000002a0: d0f7 ee3e ad48 c2be 0347 34be 06b2 c03e
000002b0: 749f bc3e 8db5 1ebe c32a 5e3e 7c21 a03e
000002c0: b2b4 3abc 8f8e 6dbe da7d 15be 4be6 18bd
000002d0: 7568 923e 98db 6f3e cd0d 063e 5c1b 7bbe
000002e0: 0928 5fbe 29fb 0c3e 4cfa 1a3d f422 d8be
000002f0: c886 9e3e 5e95 5f3d a3cd f93d 52be 603e
00000300: 1fb7 98bc 75b7 9cbd 8132 86bd 86da cb3e
00000310: 3e14 36be 421f 0cbf 972c c83e 593e 73bc
00000320: ded5 fdbd 71c6 913d 1524 48be ea18 8a3d
00000330: 91c5 96be d0a9 51be aa64 94bd 502f d1bc
00000340: 064c 99be 2e95 ac3d a076 583c 7e55 203d
00000350: 34ed 4dbe f2ea 423d 16f9 52be 3e1e e8bd
00000360: 2f4e c43b b165 443e d455 0b3e 9f04 233e
00000370: e257 28be f724 99be 281b 43be 630e ad3e
00000380: 56d7 523e b008 d7bd 4b2d dc3d 4336 d73d
00000390: c536 073f fca8 9b3e c6c4 083f 6ed0 2bbe
000003a0: 3e1a 1ebe e540 c13e decb a1be c973 10bf
000003b0: ee77 38bd 309d e23e 3dd0 ea3e 9e75 933d
000003c0: 705d 813e 87e0 e3bd 5c3a f53e ab10 aabe
000003d0: 6711 f23e 91f8 40be e57b ca3c 1524 afbd
000003e0: 8e53 f73d db55 98be a54a 343a 58bb 16be
000003f0: f57d 2dbe ed03 df3e 48f3 0a3e 47ee 9f3a

linear2.bias f4 [3]
0.15003662 0.066856645 0.030434746
00000000: 33a3 193e 23ec 883d 4a52 f93c
